modified7_24/modified/onnx_model/me.onnx (onnx, 6409 bytes, 6 tensors)

Ad_Addcst1 f4 [16]
00000000: 69a9 1941 17ef 4242 2b3d 2b41 59a1 4f42
00000010: 0e54 7941 4b73 7142 4ab2 3442 cc4e 6644
00000020: 5bab a942 3854 2b41 c0e9 c841 f20a b641
00000030: 5d59 2742 8bcc bb42 6614 d241 7548 9841
9.60386 48.733486 10.702434 51.907566 15.583021 60.36259 45.17411 921.2312
84.83468 10.708061 25.114136 22.755344 41.83727 93.8995 26.25996 19.03538

Ge_Gemmcst f4 [40, 16]
00000000: 0fef 2040 e3dc 0a42 2900 0041 3506 b941
00000010: 764c bcc0 6439 f541 30b0 9841 7e69 86c2
00000020: edca d541 1fda b640 db15 21c0 a6a8 9b41
00000030: 76e1 af41 59a3 b3c2 c49e 9740 a86b 2841
00000040: 081d 18bf 7d13 1341 8928 473f c87d 4f41
00000050: 9d27 6ec0 018e 1341 94cc 37c0 db79 7b41
00000060: cf70 2840 e7c6 553e 2f57 a03f af01 3240
00000070: c5e7 c93f db70 0fc1 a099 3a40 29d4 8c40
00000080: d054 3abf 16a3 9b40 6dca f83d 4cbd 2a41
00000090: 5be3 29c0 3e0c c141 20bc c8c0 1cb1 4cc1
000000a0: 5217 01c1 27b4 24bf 3fca 5041 656c 9140
000000b0: 0455 0e40 8f36 86c0 7b92 9340 36fd e740
000000c0: 3685 a4be 3fdc 81bf 7eb2 9f3d 9378 ed3f
000000d0: 916b 8e3e b956 3141 13f0 00c0 751d 1ac1
000000e0: 73ce 9cc0 206f 01bf 4a1e e140 59f9 86bf
000000f0: b4fd 8ebf 8a43 cabf 06f6 903f f341 a540
00000100: f302 f63e 2621 fa3f 1010 b13f 27f9 8140
00000110: 9204 40c0 c013 2140 e79a 0e40 4825 fdc1
00000120: e948 5f41 82c8 943e 9d3a 60bf 49a0 48bf
00000130: 6fe7 423e 8507 9bc1 1021 39bf f813 b53f
00000140: baad 4dbd f6de eebe 362d 7e3f 67df 9cbe
00000150: 211d 23bd 6ad6 0540 c64f dabf 5f89 03c1
00000160: 29f4 843e 8733 b1be 17da 6140 5871 e9bf
00000170: dfe2 9cbf be28 8c3f fbae 303e 0608 72be
00000180: bfdf 8c3e a7b6 8440 ef2d eb3f 0ace a53e
00000190: 83b4 4dc0 381f c93e a030 353f 0cc5 80c2
000001a0: fb6a cb40 2498 be3e 3b83 92be f490 c0bd
000001b0: 7dd4 833f abed 33c1 46df 22c0 2ce6 dfbe
000001c0: c7f6 973e 1897 7f3f ee23 2340 0bcd b7bf
000001d0: b4c4 8bbe 314a 35bf ffd9 c1bf 3ad4 dcc0
000001e0: 1816 8640 3156 83bd 269d 813f 1e34 36bf
000001f0: 05d2 5240 9355 d1bf c431 5ec0 54ea f5bd
00000200: 647d 933e 92cf 553f 2994 9a3f f3b9 86bf
00000210: 408d e1bf c53e 07bf 2598 963d a9e1 1640
00000220: 12aa 98be 2ff5 ac3e 7d90 ea3e 68f2 b5bd
00000230: 2923 7740 59cb 18c0 ca85 64c0 ea45 ffbd
00000240: c114 cd3d 3f40 65bd 3899 e0be cd8b a1bf
00000250: b237 873f 5270 74bd 0166 38be 5d9c b641
00000260: 661f d9bf 9360 b6be 7103 0440 0bb6 32bf
00000270: d62c e3bf 5aea 8a40 bdd2 aebf 5d75 06bf
00000280: 5861 aa3e 374c 5740 28c1 0fbe e2c1 2d3f
00000290: e865 84be a97e 9e3e 04a8 fabd dd0a 1641
000002a0: 278d 1940 d64e babc dd07 f63d 622e 3fbf
000002b0: f39d 95bf d5a1 25bf c076 68bf 9acc 543d
000002c0: 972f b0bd dcc0 a5bf d1c0 0b3e 42d7 02bf
000002d0: 2705 883e a058 f2be c77e 78be 94fc 47c1
000002e0: bbd0 debe 3fce b9be b00b 153f 6cc7 283f
000002f0: a7cc 5cbf c7e4 a13d 05dd 5a3f ce7e 983f
00000300: ddf6 68bc 1185 3fbf 5ab8 693d 7418 1d3f
00000310: ad2f 59bf c9e2 b13e 9e8c 28be 9593 3142
00000320: 41c1 d0bf 496e d7bd 2d5b 7e3e 05ba 213f
00000330: 460b 14c0 c47c 94bf 96ac 9b3f 89ea dd3f
00000340: 5714 d13e 70c2 82bf ace1 b9be 0708 7c3e
00000350: 8550 973f 473d e8be d4d8 523e 7f71 693f
00000360: fc0b ba3e 84b3 d9be e89f 963f 6cdd a4bf
00000370: c369 59c0 3e68 3140 28b4 bd3e 6b2c 42bf
00000380: 6cf5 7dbd 8102 74be b310 20be 3c4c 4b3f
00000390: 92f7 143e 9abe 973e a420 04bf a1b7 af3f
000003a0: f86b dd3f 1cb8 e6bd a72c d3be bad1 1f3f
000003b0: be66 0b3f 3cf8 b23c a9cd 5b3f 81ca b5be
000003c0: e079 17be 1009 25bf ad5c 6e3e 041b 35bf
000003d0: de2b 2bbd 924d d6be 4deb a3be 2242 de41
000003e0: 1bef 12bd db6d 22bd 11bb 32bf 1f7f de3f
000003f0: a2f6 f03f 2c54 d7bf fa14 573f 8ee9 6c3f
2.514591 34.71571 8.000039 23.12803 -5.8843336 30.653023 19.08603 -67.20604
26.724085 5.714126 -2.516959 19.457348 21.985088 -89.81904 4.7381306 10.526283
-0.594193 9.192258 0.77796227 12.968208 -3.7211678 9.222169 -2.8718615 15.71725
2.6318853 0.20876656 1.2526606 2.7813528 1.5773855 -8.965053 2.9156265 4.4008985
-0.72785664 4.863658 0.12147985 10.671215 -2.6545017 24.130978 -6.2729645 -12.79324
-8.068193 -0.6433739 13.0493765 4.5444818 2.223939 -4.19416 4.611631 7.2496595
-0.32132882 -1.0145339 0.077977166 1.8552421 0.27816442 11.083673 -2.014653 -9.632192
-4.9002013 -0.5056019 7.0349474 -1.0544845 -1.1171174 -1.5801861 1.132508 5.1643004
0.48049125 1.9541366 1.3833027 4.061664 -3.000279 2.5168304 2.2282045 -31.643204
13.9553 0.29059225 -0.87589437 -0.78369576 0.19033597 -19.378672 -0.72316074 1.4146719
-0.050214507 -0.4665448 0.99287736 -0.30639192 -0.0398227 2.0912118 -1.7055595 -8.221038
0.2596753 -0.34609625 3.5289361 -1.8237715 -1.2256736 1.0949934 0.1725425 -0.23635873
0.27514455 4.1472964 1.8373393 0.32383758 -3.2141426 0.3928163 0.7077732 -64.38486
6.356809 0.3722545 -0.28615746 -0.094026476 1.0299221 -11.245524 -2.5448775 -0.43730295
0.29680464 0.99839926 2.549068 -1.4359449 -0.2729851 -0.7081633 -1.5144652 -6.9009066
4.190197 -0.06412924 1.0126083 -0.71173275 3.2940686 -1.635424 -3.4717875 -0.12007585
0.28806603 0.8351985 1.2076465 -1.0525497 -1.7621231 -0.52830154 0.07353238 2.3575232
-0.29817253 0.3378081 0.4581336 -0.08884126 3.861521 -2.3874114 -3.5706658 -0.12464507
0.10013724 -0.055969473 -0.43866897 -1.2620789 1.0563872 -0.05967743 -0.18007661 22.82635
-1.6962707 -0.35620555 2.06271 -0.69809026 -1.7748058 4.3411074 -1.3658062 -0.5252283
0.33277392 3.3640268 -0.14038527 0.67873967 -0.25858998 0.3095601 -0.12239078 9.377652
2.3992403 -0.02274267 0.120132186 -0.7468015 -1.1688827 -0.6470006 -0.908062 0.051952936
-0.08602827 -1.2949481 0.13647772 -0.5110971 0.2656643 -0.4733324 -0.24267112 -12.499165
-0.43518624 -0.36290166 0.5822096 0.65929294 -0.86249775 0.07904964 0.854935 1.1913698
-0.014219013 -0.7481242 0.057060577 0.6136544 -0.8483837 0.34743336 -0.16459891 44.394123
-1.6308976 -0.10519082 0.24839468 0.6317447 -2.313188 -1.1600575 1.2162044 1.73372
0.4083583 -1.0215588 -0.36304986 0.24612437 1.1821448 -0.4535925 0.20590526 0.91188806
0.36337268 -0.42519772 1.176755 -1.2880073 -3.3970802 2.7719874 0.3705151 -0.75849026
-0.06200163 -0.2382908 -0.1563137 0.794132 0.14547566 0.29637605 -0.51612306 1.3727914
1.7298574 -0.11265585 -0.41245005 0.6242939 0.5445365 0.021846883 0.8586069 -0.3550606
-0.14792585 -0.64466953 0.2327754 -0.7074435 -0.041789882 -0.41856056 -0.32015458 27.782291
-0.03587256 -0.039655548 -0.6981669 1.7382544 1.8825266 -1.6822562 0.8401638 0.92543876

Ge_Gemmcst1 f4 [16]
00000000: 0000 0000 0000 0000 0000 0000 0000 0000
00000010: 0000 0000 0000 0000 0000 0000 0000 0000
00000020: 0000 0000 0000 0000 0000 0000 0000 0000
00000030: 0000 0000 0000 0000 0000 0000 0000 0000
0.0 0.0 0.0 0.0 0.0 0.0 0.0 0.0
0.0 0.0 0.0 0.0 0.0 0.0 0.0 0.0

Ge_Gemmcst2 f4 [40, 16]
00000000: 16c4 5b41 7df7 ac42 ed20 5742 8980 5b42
00000010: 0d40 b341 df09 1843 b0ce ee41 26d5 e440
00000020: bac0 7742 b3bc 1042 0fe5 a342 1b33 8d42
00000030: b24a 8a42 89e9 5843 368f 2542 cf0d d742
00000040: 55aa 843f d770 d340 6fc8 8b40 7788 0941
00000050: dfef 7c40 e5e2 2941 a28e da3f 9177 b441
00000060: 3c22 9240 a40c 0b40 1fd0 f940 ea45 6e40
00000070: 1613 2a40 1262 1f41 8f5d 9d40 77e6 f540
00000080: 9002 8a3f 8c76 0441 41bf 6640 d834 2e41
00000090: 1f51 2041 9412 a741 b029 2b40 97ba 6c41
000000a0: d526 7b41 796f a43f 116c 8d41 d962 2541
000000b0: e322 0d41 b836 8441 3537 ab40 c988 4c41
000000c0: 09e9 613f 2b9f 6a40 4a19 ff3f 4501 5d40
000000d0: 7572 5940 78d0 1a41 020e 8c3f 1203 9741
000000e0: 7cea 6741 1954 323f 12a6 e040 1eba bd40
000000f0: 9f24 7340 18d3 4541 c2ec e03f c4f4 fc40
00000100: d11e 763f 7fa9 9740 6249 3040 205d 8e40
00000110: 7302 4f40 b645 a940 4b64 f93f a28f 6042
00000120: 1dc4 e140 8c18 a83f 9b72 c740 01a8 f63f
00000130: d014 2d40 0766 6441 8ddf 8240 9b33 8840
00000140: 1f67 163f 431e 0040 547e f73f 38bd 953f
00000150: 643c 3c40 5652 0d40 e7d1 9e3f 30b9 5941
00000160: 2b5b d83f 5d3c 523f 65f4 7240 e849 fb3f
00000170: ca8c da3f 5376 d240 054f e13f a6ab 1840
00000180: cb32 803f b506 4040 2e89 d23f e39a 6c40
00000190: 1ed7 6b40 5510 5840 56f5 c33f 628f 2a42
000001a0: e722 4940 1499 c83f 50e9 8540 560a 1940
000001b0: 1ced 0b40 ce41 2441 eec4 4d40 a79b 2840
000001c0: 5984 8a3f ccea 8b3f 420a f23f ee56 9a3f
000001d0: a87b 2040 8019 e43f 286d 0540 81ca 1042
000001e0: d528 7040 4f6e a83f 1e1a 2a40 04c3 9c3f
000001f0: 59f0 1940 65b2 e540 955d 2c40 4190 1f40
00000200: 0cc2 5e3f 6407 693f 89a0 b03f 5e66 ab3f
00000210: 11f8 4540 346c b03f b004 b83f e77e 9141
00000220: 8fc2 3440 24b1 653f 8bf7 0e40 9ee7 b43f
00000230: 362e 0d40 2021 9c40 7a20 1e40 fa8e 1240
00000240: 88b2 493f 505c dc3f 49ea 953f e01d 8c3f
00000250: 8915 2440 c8ff e43f 77c8 463f 5655 3a42
00000260: 37ad ca3f 44eb 933f bed5 1c40 5d87 9d3f
00000270: 1818 0f40 b3a8 b340 7dc7 d13f e283 ef3f
00000280: 4c99 6a3f eee0 0b40 70a5 3c3f 0852 893f
00000290: 6921 b63f 2b2a a53f a0e3 7d3f d626 c841
000002a0: 024b d63f ae05 883f ac7c 0540 0f0d 833f
000002b0: 846e 783f 2e89 6940 2607 f13f e788 0640
000002c0: fb6b 2b3f c0a0 cf3f de1d 533f f63a e33f
000002d0: a9cd b83f 81f6 d63f faae 123f 3ae7 8141
000002e0: 2eae 2f3f 8705 783f 34f5 0940 0990 8c3f
000002f0: d75d f93f 52d1 3340 deef 0a40 b748 8f3f
00000300: 4178 5c3f 4eee 4b3f dfc2 a63f 885a 853f
00000310: 0cb2 1940 e0a0 1440 3e8b 353f 7eb8 ad42
00000320: 0207 7e3f c720 883f 01a2 2e40 9fd8 7a3f
00000330: 1ed7 0240 4713 9940 7364 8d3f f983 f03f
00000340: eb11 af3f 94f4 8f3f 330f 9b3f 6c3b 0140
00000350: 41a7 0e40 7120 2640 7b7d 7a3f 2dd5 2541
00000360: 9663 f43f d11e 893f 725f 2240 7955 a93f
00000370: 0042 d63f d889 7940 ca82 803f 1682 cd3f
00000380: 2b58 483f 0f86 083f 9983 4d3f cfa4 563f
00000390: 23e4 0240 0f30 2240 a423 363f 6708 6941
000003a0: 420c ba3f f670 5a3f 3c47 f13f 8a2d 963f
000003b0: b2ac bf3f 5144 2340 1cc1 c63f bcc4 a43f
000003c0: 93de 993f 929a 2a3f 489d 6c3f a388 763f
000003d0: 8e80 1440 dd3b 1f40 86ad 9e3f 3f78 9142
000003e0: 2ed6 db3f 2321 513f e2b1 ff3f cae8 a53f
000003f0: daf7 c83f c181 9140 4dff c13f b3ba a33f
13.735373 86.483376 53.782154 54.875523 22.406275 152.03856 29.850922 7.151019
61.93821 36.184277 81.94738 70.599815 69.14589 216.91225 41.389854 107.52697
1.0364481 6.6075244 4.368217 8.595817 3.9521406 10.617894 1.7074778 22.558382
4.566679 2.1726465 7.8066554 3.7230172 2.657415 9.961443 4.9176707 7.684383
1.0782032 8.278942 3.6054232 10.887901 10.019805 20.884071 2.6744194 14.795554
15.69698 1.2846519 17.677767 10.336633 8.821017 16.526718 5.350489 12.783395
0.8824621 3.6659648 1.9929593 3.4532025 3.397611 9.675896 1.0941775 18.8765
14.494747 0.6965957 7.0202723 5.9289694 3.7991102 12.364037 1.7572253 7.9048786
0.9614077 4.7394404 2.754479 4.448868 3.2345245 5.2897596 1.9483732 56.140266
7.0551896 1.3132491 6.23274 1.9270021 2.7043953 14.274909 4.089789 4.2562995
0.587511 2.001847 1.9335427 1.169837 2.941186 2.2081504 1.2407807 13.607712
1.6902822 0.8212336 3.7961667 1.9631929 1.7074215 6.576944 1.760224 2.3854766
1.0015501 3.0004094 1.6448114 3.6969535 3.6850047 3.3759968 1.5309246 42.640022
3.1427553 1.5671716 4.1847305 2.3912559 2.186347 10.266066 3.2151446 2.6345003
1.0821639 1.0931029 1.890938 1.2057779 2.5075474 1.7820282 2.0847874 36.197758
3.7524922 1.3158664 2.657844 1.2247014 2.4052947 7.1780267 2.6932118 2.4931796
0.8701484 0.910269 1.3798991 1.3390615 3.0932658 1.3783021 1.437643 18.186964
2.824375 0.8972342 2.2338588 1.4133184 2.2059455 4.8790436 2.4707322 2.2899766
0.7878804 1.7215672 1.1712123 1.0946617 2.5638144 1.7890558 0.77649635 46.583336
1.5834111 1.1556172 2.4505458 1.2306935 2.2358456 5.614343 1.6389004 1.8712122
0.9164016 2.1856036 0.7368994 1.0728159 1.4228946 1.2903494 0.99175453 25.018963
1.674164 1.0626733 2.0857344 1.023836 0.97043633 3.6489978 1.8830307 2.1021059
0.6696164 1.6220932 0.8246745 1.7752368 1.4437762 1.6793977 0.57298243 16.237904
0.6862515 0.96883434 2.155591 1.0981456 1.9481763 2.809651 2.1708903 1.1194066
0.8612099 0.796605 1.302822 1.0418253 2.401492 2.322319 0.7091559 86.86034
0.99229443 1.0635003 2.728638 0.9798679 2.0443797 4.783603 1.104628 1.8790275
1.3677343 1.1246514 1.2114013 2.0192518 2.2289584 2.59573 0.9784772 10.364545
1.9092891 1.071253 2.5370755 1.3229209 1.6738892 3.8990383 1.0039914 1.6055324
0.78259534 0.5332956 0.8027893 0.8384523 2.0451744 2.5341833 0.71148133 14.564551
1.4534991 0.85328615 1.8849864 1.1732647 1.4974577 2.5510447 1.5527682 1.2872539
1.2021049 0.66642106 0.9242749 0.9630224 2.3203464 2.4880288 1.2396705 72.734856
1.7174737 0.8169119 1.997616 1.2961667 1.5700638 4.547089 1.5156037 1.2791351

Ad_Addcst2 f4 [16]
00000000: 30d1 d541 551c 3e42 f8ed 2442 c906 3742
00000010: 740f 2242 dd02 5942 ec5c 1342 2b84 9e42
00000020: 98a2 5142 a8c4 f841 bc7c 5342 fba2 2f42
00000030: e74b 3c42 e325 7c42 2fd4 3842 6215 5242
26.727142 47.527668 41.23239 45.756626 40.51509 54.252796 36.840744 79.25814
52.408783 31.096024 52.87181 43.90916 47.074123 63.037 46.20721 52.52088

Ad_Addcst3 f4 [16]
00000000: 7175 30c0 3f87 4bc0 6dbd 1cc0 505f 59c0
00000010: a62d 4fc0 2382 21c0 9d0c 24c0 8b7e 93c0
00000020: ea3a 73c0 a82f 27c0 df9a 10c0 ea60 2ec0
00000030: 8935 62c0 efef debf 15f8 45c0 2ecb 3bc0
-2.757168 -3.1801298 -2.4490616 -3.3964424 -3.2371612 -2.523568 -2.5632699 -4.609197
-3.8004708 -2.6122837 -2.2594526 -2.7246652 -3.5345175 -1.7416972 -3.0932667 -2.934276
