modified7_24/modified/onnx_model/s1073349.onnx (onnx, 6409 bytes, 6 tensors)

Ad_Addcst1 f4 [16]
0	0x41b529b3	22.64536
1	0x40d5a522	6.676408
2	0x41e94f5a	29.163746
3	0x41960727	18.753492
4	0x421b5b3f	38.839108
5	0x43315612	177.33621
6	0x424706fd	49.756824
7	0x4094fe0a	4.6560106
8	0x41ec2bcd	29.521387
9	0x42856cf4	66.7128
10	0x42c3726f	97.7235
11	0x415a53f7	13.645499
12	0x42a64d88	83.15143
13	0x4121b0b7	10.105643
14	0x3f91baca	1.1385128
15	0x42807904	64.23636

Ge_Gemmcst f4 [40, 16]
0	0x405d834a	3.4611382
1	0x405c4bbf	3.4421232
2	0x41a08804	20.066414
3	0x4022789e	2.538612
4	0x419ffa9b	19.997366
5	0xc1378329	-11.4695215
6	0x41690e4e	14.565992
7	0x3fba1e17	1.4540433
8	0x414dc92f	12.861617
9	0x4224f239	41.236546
10	0x41b0b665	22.08906
11	0xc1071fa1	-8.445222
12	0x4203a49e	32.91076
13	0xbfd66484	-1.6749425
14	0x3f012ff8	0.5046382
15	0x41b0466a	22.034382
16	0x40e8e395	7.277781
17	0x4045f071	3.0928004
18	0x3fbbb988	1.4665995
19	0x3ffe9a98	1.9890928
20	0x41328d68	11.159523
21	0x41190fef	9.56639
22	0x4188c148	17.094376
23	0xbf862b58	-1.0481977
24	0x401ab11e	2.4170604
25	0x414a5f2c	12.648235
26	0xc14f4406	-12.954107
27	0xc0393c30	-2.8942986
28	0x4023608c	2.5527678
29	0xbfd4ad41	-1.6615373
30	0xbf01a0f3	-0.50636214
31	0x410cdfbe	8.804625
32	0xbfb94deb	-1.4476904
33	0x3ee5ca19	0.4488075
34	0xbdb417da	-0.08793612
35	0x408617a4	4.190386
36	0xbfbb0128	-1.4609728
37	0x3f5d40d9	0.86427075
38	0x3fa308a7	1.2737015
39	0xbf11ca64	-0.5694945
40	0xbea327d1	-0.31866315
41	0xc0ea89b6	-7.3293104
42	0x41864013	16.781286
43	0xbf90159e	-1.1256597
44	0x3fc1f8f6	1.5154102
45	0xbead3a3c	-0.33833492
46	0x3ea91b59	0.33028677
47	0x410bf76a	8.747904
48	0xbf66b062	-0.9011289
49	0xbe1e4930	-0.15457606
50	0xc0740643	-3.8128822
51	0x3ffb55cd	1.9635559
52	0xc003c5df	-2.058952
53	0x413b2318	11.696068
54	0xc0ae9c7a	-5.456601
55	0x3d5779fc	0.052606568
56	0xc0901cfe	-4.503539
57	0xc125acb9	-10.354669
58	0xbfe0a5a2	-1.7550547
59	0x402615a7	2.5950716
60	0x4013e8e1	2.3110888
61	0x3fe58462	1.7931025
62	0x3e7a3b1f	0.24436615
63	0x3ea476f2	0.32121998
64	0x3ea66d43	0.32505235
65	0xbf9a75a0	-1.2067146
66	0x3ef01a13	0.46894893
67	0xbe9131e3	-0.28358373
68	0xbee80dd0	-0.45323038
69	0x3f1ea10f	0.61964506
70	0xc05e4930	-3.473217
71	0x3ef53a25	0.47895923
72	0xbf8481c7	-1.0352105
73	0xc0740bbe	-3.8132167
74	0x409f7255	4.9827065
75	0x40178e55	2.3680623
76	0xc08711ac	-4.220907
77	0x3eb9908e	0.362431
78	0x3edfabce	0.43685764
79	0x4049e01d	3.1543038
80	0x3f3cb736	0.7371706
81	0xbef44b57	-0.4771373
82	0xbe64ada1	-0.22331859
83	0xbfe7a7a0	-1.809803
84	0xbf6da3cf	-0.9282808
85	0x407c0a83	3.9381416
86	0x3f790e15	0.9728711
87	0x3f865998	1.0496092
88	0x3f09ce8d	0.53830796
89	0x404d63f3	3.2092254
90	0x3f11c0c5	0.5693477
91	0x3f6ebb1f	0.93254274
92	0xc04ef324	-3.2335901
93	0x3f12304c	0.57104945
94	0xbcb36ca4	-0.02190239
95	0xc1575c9c	-13.46011
96	0x4050880f	3.2583044
97	0xbe97191e	-0.2951135
98	0xbfb9a11d	-1.4502293
99	0xbf3731ea	-0.7156054
100	0xbe406af5	-0.18790801
101	0x3fe3eb23	1.7806133
102	0x41261c5f	10.381927
103	0xbeba0e06	-0.36338824
104	0x4023d8df	2.5601118
105	0x3f0661d6	0.52493036
106	0x4045f0e4	3.0928278
107	0x3f8d5845	1.1042563
108	0x3da7e1c1	0.08197356
109	0x3f162908	0.5865636
110	0xbecd768d	-0.4012951
111	0xc0b58219	-5.672131
112	0xc0291e60	-2.642479
113	0xbf5b26d1	-0.85606104
114	0xbd7afc23	-0.061275613
115	0xbff6dfb6	-1.9287021
116	0x3f96b3f3	1.1773666
117	0x40af7807	5.483402
118	0xc0d20713	-6.5633636
119	0x3f2979b4	0.6620133
120	0xbe6dd0a7	-0.23224126
121	0xc005948e	-2.087192
122	0x40f64b8b	7.6967216
123	0x3fd81f2d	1.6884514
124	0xc05395cc	-3.3060179
125	0x40335ce5	2.8025448
126	0x3de01bcd	0.109428026
127	0xbfd6c3a4	-1.6778455
128	0x3f1f1325	0.6213859
129	0x3e0015aa	0.12508264
130	0xbf1f6131	-0.6225768
131	0xbf76f3aa	-0.9646555
132	0x3ebdd83e	0.37079042
133	0xc0367b94	-2.8512926
134	0x4011fd4d	2.2810853
135	0x3e303086	0.1720601
136	0xbf4c138c	-0.79717326
137	0x40187141	2.3819125
138	0xc031cf67	-2.7782838
139	0x3f0b735f	0.5447292
140	0x3d8c996a	0.06865199
141	0xbea86fb0	-0.3289771
142	0xbea115bf	-0.31461903
143	0xbe4b2e15	-0.19841798
144	0xbfc64d19	-1.5492278
145	0xbdde9cfd	-0.10869787
146	0x3d859501	0.06522561
147	0xbf859a5b	-1.043773
148	0xbfe9da01	-1.8269655
149	0x40b0dede	5.5272055
150	0xbf496fce	-0.78686225
151	0x3e19fcf4	0.150379
152	0xbeb4b33c	-0.35292995
153	0x3f9cb950	1.2244053
154	0x4073e273	3.8106964
155	0x3f8cc4ab	1.0997518
156	0x40035451	2.0520213
157	0x3f3849fc	0.7198789
158	0xbe48cb2c	-0.19608754
159	0xbfffda65	-1.9988524
160	0xc01493b9	-2.3215163
161	0x3d2faaaf	0.042887386
162	0x3da89a79	0.08232588
163	0x3f2418c4	0.6410029
164	0xc02b6aeb	-2.6784008
165	0x408e378a	4.4442797
166	0x3d84f274	0.06491557
167	0xbd216e28	-0.039411694
168	0xbf1abfa7	-0.6044869
169	0xbfeb506e	-1.838392
170	0x406fcee2	3.7470021
171	0x3f97d881	1.1862947
172	0xbfd9eb4a	-1.702493
173	0x3f2d7af1	0.6776572
174	0xbda00d72	-0.078150645
175	0xbf061abd	-0.5238455
176	0x3d52f193	0.051499914
177	0xbe8887ca	-0.266661
178	0x3e0436e4	0.12911564
179	0xbf89e2f0	-1.0772381
180	0x3ec5c02d	0.3862318
181	0x40acd00f	5.400398
182	0xbeae8565	-0.34086147
183	0x3ecccc2e	0.39999527
184	0xbe011e92	-0.12609318
185	0xc01472f4	-2.3195162
186	0x40cde328	6.433979
187	0xbd26b46a	-0.0406994
188	0xc067a095	-3.6191761
189	0x3edeb3f4	0.43496668
190	0xbcbc9cb9	-0.02302395
191	0x40361f02	2.8456426
192	0xbf88c74a	-1.0685818
193	0xbe0b7f2d	-0.13622732
194	0x3f58a48a	0.84626067
195	0xbf4be2cd	-0.79642946
196	0xbd87afd9	-0.06625337
197	0x40a0d7ea	5.0263567
198	0xc0303086	-2.7529616
199	0x3eda1126	0.42591208
200	0xbfd89b23	-1.6922344
201	0xbea3e602	-0.3201142
202	0x3f7f1366	0.99638975
203	0xbc39a807	-0.011331565
204	0xbf3351a4	-0.7004645
205	0x3eee89e6	0.46589583
206	0x3d3b87b8	0.04578373
207	0x3f066b9f	0.52507967
208	0x3ecd5e4b	0.40111002
209	0xbe9741f7	-0.29542515
210	0x3f0a7117	0.5407881
211	0xbe0bbc9c	-0.13646168
212	0xc014ff00	-2.328064
213	0x3f8b54de	1.0885274
214	0xbd996125	-0.07489232
215	0x3e449948	0.19199097
216	0xbc4d36c4	-0.012525264
217	0x3d04edde	0.03245341
218	0x3fbf3794	1.4938836
219	0x3e574872	0.2102373
220	0xbfcf91ab	-1.6216329
221	0x3e81055a	0.25199395
222	0xbca492eb	-0.020089587
223	0xbf7a6b79	-0.9782024
224	0xc030500e	-2.7548862
225	0xbdf63e2f	-0.12023579
226	0x3fc1bec0	1.5136337
227	0xbfcb7760	-1.5895805
228	0x3faf57a2	1.3698618
229	0x420a6ffa	34.609352
230	0xbf4cb0bc	-0.79957175
231	0xbd5efe53	-0.05444176
232	0xbe1e4195	-0.15454705
233	0x3ffa5e86	1.9560096
234	0x4038dc71	2.8884547
235	0x3e2b07c3	0.1670218
236	0xbfd61e98	-1.6728086
237	0xbe800ad6	-0.25008267
238	0x3e8071e1	0.25086883
239	0xbf8084d6	-1.0040538
240	0xbf1f0c1e	-0.62127864
241	0x3d3ef586	0.04662087
242	0x3f852e40	1.0404739
243	0xbf06ca1e	-0.52652156
244	0x3f728107	0.9472813
245	0xc1dbe7ee	-27.488247
246	0x3f204d3b	0.62617844
247	0xbe944b37	-0.28963634
248	0xbe62b6b9	-0.22140016
249	0x3f0ded36	0.5544008
250	0xbe9305ed	-0.2871546
251	0xbf8c0738	-1.0939703
252	0x402b82ac	2.6798506
253	0xbe7909df	-0.24320172
254	0xbcc938f4	-0.02456329
255	0x3e95bb04	0.29244244

Ge_Gemmcst1 f4 [16]
0	0x00000000	0.0
1	0x00000000	0.0
2	0x00000000	0.0
3	0x00000000	0.0
4	0x00000000	0.0
5	0x00000000	0.0
6	0x00000000	0.0
7	0x00000000	0.0
8	0x00000000	0.0
9	0x00000000	0.0
10	0x00000000	0.0
11	0x00000000	0.0
12	0x00000000	0.0
13	0x00000000	0.0
14	0x00000000	0.0
15	0x00000000	0.0

Ge_Gemmcst2 f4 [40, 16]
0	0x4155591d	13.334256
1	0x41701942	15.006166
2	0x41ee022d	29.751062
3	0x422b4432	42.816597
4	0x42336e20	44.857544
5	0x3f9ba8e4	1.2160916
6	0x42567679	53.615696
7	0x40cd512c	6.4161587
8	0x4195f86a	18.746296
9	0x42efc45c	119.883514
10	0x41c9baea	25.216267
11	0x41803732	16.02695
12	0x426c58d7	59.086758
13	0x3fedcbf1	1.8577863
14	0x40ac0e5b	5.3767524
15	0x42cf82b3	103.75527
16	0x414ce843	12.8067045
17	0x405e4f58	3.4735928
18	0x409e7da0	4.952835
19	0x40053caa	2.0818276
20	0x4154a70e	13.290785
21	0x414a2963	12.635104
22	0x41a6a4d8	20.83049
23	0x3f9e8a67	1.2385987
24	0x4002207e	2.0332332
25	0x4145ed2a	12.370401
26	0x40f89145	7.767733
27	0x409ce21b	4.902601
28	0x41249439	10.286187
29	0x401e8a90	2.4772072
30	0x3f9725a3	1.1808361
31	0x4188e6c5	17.11268
32	0x40032009	2.0488303
33	0x3fa2c212	1.2715476
34	0x3f2d2d4a	0.6764723
35	0x4080d182	4.0255747
36	0x40365422	2.848885
37	0x40901d37	4.5035663
38	0x40ce996b	6.456228
39	0x3f903514	1.1266198
40	0x3fa662cb	1.2998899
41	0x40fb81e3	7.8596053
42	0x41428617	12.157737
43	0x401f034b	2.484576
44	0x3f8c684f	1.0969332
45	0x3fc76add	1.5579487
46	0x3f66db6c	0.9017856
47	0x411e2e85	9.886357
48	0x40525323	3.2863243
49	0x3f5c027d	0.85941297
50	0x4060cf7e	3.5126643
51	0x4008f1db	2.1397617
52	0x40029bcf	2.0407598
53	0x410abe51	8.671464
54	0x40ee33a9	7.443806
55	0x4008885e	2.1333232
56	0x402c99a4	2.6968775
57	0x40ec52ff	7.3851314
58	0x40809281	4.017884
59	0x40796641	3.896866
60	0x402e50e3	2.723687
61	0x3fefad25	1.8724715
62	0x3fb9ba1d	1.4509922
63	0x41112520	9.071564
64	0x4028044d	2.6252625
65	0x3f99e495	1.2022883
66	0x3f882d6e	1.0638864
67	0x3fb5f92a	1.4216664
68	0x3fea86d5	1.8322397
69	0x411f0411	9.938493
70	0x4082436c	4.07073
71	0x3fbcabd5	1.4739939
72	0x3fd2c1d2	1.6465399
73	0x40766282	3.8497624
74	0x409b5aa1	4.854813
75	0x40919104	4.548952
76	0x3fe8e570	1.8195019
77	0x3fb32533	1.3995727
78	0x3fa18cfb	1.2621149
79	0x40aa611a	5.324353
80	0x4023e164	2.5606318
81	0x3f51cdf9	0.81954914
82	0x3f4dcdec	0.80392337
83	0x3fc08d90	1.5043201
84	0x3fce28f4	1.6106248
85	0x412137cb	10.076121
86	0x40640a25	3.5631192
87	0x3faa812d	1.3320671
88	0x401a4338	2.4103527
89	0x408fb1da	4.4904604
90	0x4089e519	4.309216
91	0x404c4366	3.1916137
92	0x4038840f	2.8830602
93	0x3ff0e95e	1.8821218
94	0x3f7adca7	0.9799294
95	0x410949c4	8.580509
96	0x4082ceec	4.087759
97	0x3f84f80d	1.0388199
98	0x3fd18f4a	1.6371853
99	0x3fa66bd0	1.3001652
100	0x4025e9fc	2.5924063
101	0x403bf10a	2.9365869
102	0x411c8d2a	9.784464
103	0x3f5e08c4	0.86732125
104	0x40069987	2.1031206
105	0x401482ad	2.3204758
106	0x40836dc3	4.1071486
107	0x404878b6	3.1323676
108	0x3f5f0910	0.87123203
109	0x3fa986ef	1.3244303
110	0x3f9b3f57	1.2128705
111	0x405ea890	3.4790382
112	0x4044dce3	3.0759819
113	0x3f8e66af	1.1125087
114	0x3f3f5fd6	0.7475561
115	0x3fe68006	1.800782
116	0x400cf403	2.2023933
117	0x4102ce5c	8.175381
118	0x410c2a71	8.760362
119	0x3fa2a182	1.2705538
120	0x3fb4fd95	1.4139887
121	0x40398847	2.8989427
122	0x40e15a97	7.0423083
123	0x4031f56c	2.7806044
124	0x4025a4c9	2.5881827
125	0x4063c6f7	3.5590189
126	0x3fae7b46	1.363137
127	0x40b0c2fc	5.523802
128	0x3fd6a759	1.676982
129	0x3f39e2dd	0.7261179
130	0x3f3eeeab	0.7458293
131	0x3fb22f42	1.3920672
132	0x3f328dea	0.69747794
133	0x41a3af33	20.460546
134	0x4042963b	3.0404193
135	0x3f855996	1.0417964
136	0x3f96b36c	1.1773505
137	0x400b3d9c	2.1756353
138	0x40ba85d3	5.828836
139	0x40304ec4	2.7548075
140	0x40200cbf	2.500778
141	0x3fc10734	1.5080323
142	0x3f616324	0.880419
143	0x404814dc	3.1262732
144	0x3fa73868	1.3064089
145	0x3f5b77d4	0.8572972
146	0x3f248707	0.64268535
147	0x40062404	2.0959482
148	0x3f95d5b5	1.1705843
149	0x41328191	11.156632
150	0x3fcd07e9	1.6018039
151	0x3fcc4e95	1.5961481
152	0x3f9972da	1.1988175
153	0x3fb926cb	1.4464964
154	0x40d33553	6.6002593
155	0x402722f3	2.6115081
156	0x3ff711e0	1.930233
157	0x3fc6c6aa	1.5529377
158	0x3f7ff30b	0.9998023
159	0x40529d04	3.2908335
160	0x4002f171	2.0459864
161	0x3f3f1b5c	0.7465112
162	0x3f79bf7f	0.97557825
163	0x3fcbcbda	1.5921586
164	0x3feec88c	1.8654952
165	0x40b426fb	5.6297584
166	0x40015e35	2.021375
167	0x3f6973bd	0.9119223
168	0x3fb56dff	1.4174193
169	0x3ff0971b	1.8796114
170	0x40f20608	7.563236
171	0x40152f03	2.3309944
172	0x4054de7f	3.32608
173	0x3fcb8654	1.5900369
174	0x3f8bdca1	1.0926706
175	0x3fbfd42d	1.4986626
176	0x3f365fce	0.71239936
177	0x3f54f196	0.8318113
178	0x3f081d7c	0.5316999
179	0x400a0638	2.1566296
180	0x4007f000	2.1240234
181	0x425d5534	55.333206
182	0x3fd5d648	1.6706018
183	0x3f85bce2	1.0448267
184	0x3f895f38	1.0732183
185	0x4032a8d2	2.791554
186	0x4131b800	11.107422
187	0x3ff281bb	1.8945841
188	0x40505b8c	3.2555876
189	0x401e6381	2.4748232
190	0x3f795aef	0.9740438
191	0x3fe71e8d	1.8056198
192	0x40181f8d	2.3769257
193	0x3f302ff4	0.6882317
194	0x3f462c52	0.7741138
195	0x40067897	2.1011102
196	0x3f108bef	0.5646352
197	0x410b3b6b	8.702006
198	0x404bbbd5	3.1833394
199	0x3f697b76	0.9120401
200	0x401e52a6	2.4737945
201	0x3f4a8987	0.791161
202	0x406ccb5c	3.699912
203	0x3febdd70	1.8426952
204	0x3fee4d00	1.8617249
205	0x3fd82d92	1.6888907
206	0x3f926916	1.143832
207	0x3febd84d	1.8425385
208	0x3f938aaf	1.1526698
209	0x3f5ac319	0.85453945
210	0x3f0dd0f5	0.5539697
211	0x3f7688f5	0.9630273
212	0x400864c9	2.1311514
213	0x40d2f7d4	6.5927525
214	0x3f946ea6	1.1596267
215	0x3fc8912f	1.5669307
216	0x3fd133f4	1.634398
217	0x3f2e75f3	0.68148726
218	0x408e0b79	4.4389005
219	0x3fb26c9f	1.3939399
220	0x3fa735a1	1.3063241
221	0x3fdc0cd9	1.7191421
222	0x3fa44562	1.2833674
223	0x3fa3a614	1.2785058
224	0x405e3a95	3.4723256
225	0x3f5b94b4	0.8577378
226	0x3f830bcf	1.0237979
227	0x3ff97473	1.9488662
228	0x3fb89525	1.4420515
229	0x42cf46af	103.638054
230	0x40650f92	3.5790753
231	0x3f9161ff	1.1358031
232	0x3f9b33f4	1.212523
233	0x40180836	2.3755012
234	0x40c54ef9	6.16589
235	0x40339bc6	2.8063827
236	0x3f9fdba7	1.2488908
237	0x3f6985d5	0.91219836
238	0x3fbaa9d2	1.4583075
239	0x3f563887	0.83680004
240	0x3fad2624	1.3527265
241	0x3f3c4bf1	0.7355338
242	0x3f2337bb	0.6375691
243	0x3f85c48e	1.0450609
244	0x3f9d31ec	1.228086
245	0x42df5a7d	111.676735
246	0x403f625e	2.9903789
247	0x3fb44a8b	1.4085249
248	0x401444b0	2.3166924
249	0x3fa68aa8	1.3011065
250	0x4044bf64	3.0741816
251	0x40478ebb	3.1180866
252	0x400713a9	2.110575
253	0x3f964fef	1.1743144
254	0x3f97a6c0	1.1847763
255	0x3f6ca717	0.9244246

Ad_Addcst2 f4 [16]
0	0x422bcaec	42.948166
1	0x41d2ac25	26.334055
2	0x41f089ab	30.06722
3	0x4231a090	44.4068
4	0x4222d91f	40.712032
5	0x4251b21a	52.423927
6	0x426085d3	56.130688
7	0x421b55bf	38.833736
8	0x423070d7	44.110195
9	0x4241b591	48.42731
10	0x42649d1e	57.153435
11	0x424630e2	49.547737
12	0x4243b82a	48.929848
13	0x41f82d4f	31.022123
14	0x41cbba0e	25.465847
15	0x4249f0b6	50.48507

Ad_Addcst3 f4 [16]
0	0xc04a4a1f	-3.160774
1	0xc002d46f	-2.044216
2	0xc044a912	-3.0728192
3	0xc03f82c2	-2.9923558
4	0xc06f108e	-3.7353854
5	0xc09b8ae8	-4.8607063
6	0xc05c6a02	-3.4439702
7	0xc00b5345	-2.1769574
8	0xc04f4029	-3.238291
9	0xc045c086	-3.0898757
10	0xc05492c4	-3.3214579
11	0xbfd25131	-1.6431028
12	0xc0835772	-4.1044245
13	0xc03bb41e	-2.9328685
14	0xbffb834d	-1.9649445
15	0xc05f229e	-3.4864879
