modified7_24/modified/onnx_model/tingmei_MEMS.onnx (onnx, 6409 bytes, 6 tensors)

Ad_Addcst1 f4 [16]
116.25221 58.41955 19.894056 26.704773 133.43324 43.88222 18.318886 9.8627405
33.708202 24.530628 137.97734 94.68845 51.308628 113.99919 86.900986 50.123505
00000000: 2281 e842 9fad 6942 0727 9f41 60a3 d541
00000010: e96e 0543 6587 2f42 148d 9241 c9cd 1d41
00000020: 33d5 0642 ba3e c441 33fa 0943 7d60 bd42
00000030: 093c 4d42 96ff e342 4ecd ad42 787e 4842

Ge_Gemmcst f4 [40, 16]
-20.336155 3.3024054 0.87380534 -4.4820757 14.421862 3.6611784 0.7315618 -0.83777165
0.79939103 -4.1393127 13.117999 -13.07836 5.3821173 6.7283707 6.688824 1.8221079
-15.79876 3.2478528 0.57142866 -3.1367106 1.8653898 5.987429 -0.0026594042 1.1962391
-3.188727 3.6762505 4.6381593 -2.3059123 5.8592505 6.881378 -0.037809994 7.1298995
-18.893562 4.569264 0.59481096 -5.802782 17.34636 10.997307 0.050671536 0.8938727
-5.508263 4.3717465 4.418055 -8.105356 11.146065 9.321876 0.5013258 9.1853485
-1.1480631 0.95620584 -0.8862664 -0.5667536 0.029437993 5.8085976 0.6235001 1.0462834
0.15921529 4.122443 -3.8963904 3.9435492 -1.3641218 1.9821413 -7.0674953 -1.8149425
2.5778193 -0.17813444 1.3958738 0.87113 -6.8475146 2.1839986 0.7297503 1.3791475
2.2189198 4.073193 -7.946973 1.9351971 -2.5319707 -0.5497854 -2.4485857 -4.1919475
-14.055285 5.7633715 6.907557 -3.3828042 8.320641 3.2209823 0.46859485 0.9748793
-1.0048867 1.7908382 1.081265 -25.420895 0.30164665 3.8660138 9.243402 0.8576778
1.3178779 -3.0845113 2.3781216 1.4371492 -8.967579 -2.801511 -0.14231215 0.05585435
1.3656583 1.8322991 -4.789025 1.7848163 -4.494582 -6.9973054 5.994249 -0.10248745
-0.06413916 -1.0560491 0.2824775 0.00078093464 -5.6444726 -0.96258634 -0.31715217 0.08451413
-1.0947763 2.8832395 -3.4152076 1.5583454 -1.4826754 -2.2327008 1.9167536 3.3798475
5.75151 -2.7936208 -1.882258 1.8648189 -6.232108 -3.3251464 -0.07237987 0.16350129
1.4421288 1.9098622 -2.2127419 6.3129935 -1.5320644 -3.6429415 -1.6589807 1.0990307
15.237253 -2.9410112 -4.1592126 8.335939 -7.331936 -3.6943562 0.19432089 1.2546761
3.4972966 1.457997 -7.453367 22.182714 -1.6831172 -21.14193 -8.303277 -3.6897595
-1.3193549 1.506834 -0.4058253 -0.53095853 11.21715 0.49927688 -0.2685305 0.30868182
-0.84397686 -0.7905638 4.0568376 -2.9089475 3.5560443 0.35519457 -1.7152139 -0.35136402
9.2381735 -5.8606725 -1.6599867 3.0543516 -0.31995806 -1.9637688 -0.08454242 -0.2899644
2.2159963 -1.3451227 -0.07796063 3.084271 -0.7469019 -3.9718804 -2.0321476 -4.191151
-0.021491792 -1.3552399 -0.74281085 -0.3780648 8.490014 0.34872487 -0.6471256 -0.68725425
-1.5038795 0.73608255 1.606808 -0.31038013 1.229768 0.13351405 -0.56234473 0.6322266
7.3352985 -9.098491 -0.7313697 4.0388823 -1.7387756 -0.96549064 -1.3523464 -1.1479572
0.9126032 1.1220467 -5.0633607 8.900174 -3.5051727 -2.8853154 -2.0932841 -0.30776352
2.7942193 -2.8704872 0.017907673 0.59813213 1.2878436 -1.1787618 -0.7801992 -1.3012184
0.38379583 -0.6801348 -0.5515314 -0.10078729 -0.8563067 -1.4193864 0.9705983 3.6199844
1.743384 -2.366115 -1.9550203 0.27443457 0.7140663 0.5769045 -0.4219808 -0.7181638
-0.0385748 0.95128524 -1.199801 3.2609742 -1.3932211 0.28069127 -3.6586761 4.0607314
00000000: 72b0 a2c1 9c5a 5340 b5b1 5f3f 2a6d 8fc0
00000010: f2bf 6641 bf50 6a40 a247 3b3f 3478 56bf
00000020: e4a4 4c3f 4075 84c0 53e3 5141 f640 51c1
00000030: 4e3a ac40 d04e d740 d90a d640 d53a e93f
00000040: b9c7 7cc1 d2dc 4f40 2649 123f debf 48c0
00000050: 18c5 ee3f 0599 bf40 6649 2ebb 5d1e 993f
00000060: 1a14 4cc0 b047 6b40 cd6b 9440 1194 13c0
00000070: fb7e bb40 4034 dc40 a7de 1abd 2328 e440
00000080: 0426 97c1 6937 9240 8845 183f 64b0 b9c0
00000090: 58c5 8a41 f8f4 2f41 f58c 4f3d d7d4 643f
000000a0: b143 b0c0 59e5 8b40 b560 8d40 8aaf 01c1
000000b0: 4856 3241 6726 1541 e356 003f 30f7 1241
000000c0: bbf3 92bf e8c9 743f 5be2 62bf c416 11bf
000000d0: f227 f13c 08e0 b940 b49d 1f3f 9dec 853f
000000e0: 5509 233e 0eeb 8340 765e 79c0 1c63 7c40
000000f0: 8b9b aebf ceb6 fd3f ec28 e2c0 0950 e8bf
00000100: fefa 2440 e068 36be feab b23f 6002 5f3f
00000110: d71e dbc0 a2c6 0b40 ead0 3a3f e887 b03f
00000120: c802 0e40 9957 8240 9a4d fec0 8ab4 f73f
00000130: cf0b 22c0 bcbe 0cbf a1b5 1cc0 6f24 86c0
00000140: 73e2 60c1 8a6d b840 b50a dd40 dd7f 58c0
00000150: 5821 0541 9324 4e40 aaeb ef3e b191 793f
00000160: 21a0 80bf 303a e53f e466 8a3f fe5d cbc1
00000170: 6e71 9a3e c56c 7740 f9e4 1341 c690 5b3f
00000180: 39b0 a83f a268 45c0 2533 1840 81f4 b73f
00000190: 347b 0fc1 f54b 33c0 47ba 11be 88c7 643d
000001a0: e4cd ae3f c788 ea3f b13f 99c0 dc74 e43f
000001b0: 9ed3 8fc0 ede9 dfc0 e3d0 bf40 f1e4 d1bd
000001c0: 645b 83bd 9e2c 87bf e4a0 903e a3b7 4c3a
000001d0: 859f b4c0 0f6c 76bf c561 a2be bf15 ad3d
000001e0: a121 8cbf ff86 3840 c392 5ac0 dd77 c73f
000001f0: 4fc8 bdbf 92e4 0ec0 2f58 f53f 6c4f 5840
00000200: 5f0c b840 afca 32c0 d5ed f0bf 63b2 ee3f
00000210: 6e6d c7c0 33cf 54c0 e63b 94bd e26c 273e
00000220: ad97 b83f 5d76 f43f 909d 0dc0 0b04 ca40
00000230: b01a c4bf f425 69c0 7b59 d4bf 0aad 8c3f
00000240: cacb 7341 8739 3cc0 4518 85c0 0260 0541
00000250: 389f eac0 5570 6cc0 0efc 463e 3a99 a03f
00000260: b5d3 5f40 a59f ba3f fc81 eec0 3376 b141
00000270: 6270 d7bf ac22 a9c1 39da 04c1 0525 6cc0
00000280: 9fe0 a8bf f0df c03f 55c8 cfbe e6ec 07bf
00000290: 7279 3341 38a1 ff3e d47c 89be 8b0b 9e3e
000002a0: de0e 58bf 6462 4abf 9dd1 8140 322c 3ac0
000002b0: 3b96 6340 10dc b53e 218c dbbf fce5 b3be
000002c0: 8fcf 1341 a18a bbc0 727a d4bf 7f7a 4340
000002d0: 8bd1 a3be c75c fbbf 9424 adbd 3776 94be
000002e0: e2d2 0d40 fb2c acbf d3a9 9fbd b264 4540
000002f0: f734 3fbf 4a33 7ec0 b50e 02c0 e91d 86c0
00000300: 8e0f b0bc 8078 adbf da28 3ebf b691 c1be
00000310: 19d7 0741 118c b23e 06aa 25bf e5ef 2fbf
00000320: 207f c0bf e86f 3c3f e2ab cd3f 25ea 9ebe
00000330: 0a69 9d3f e8b7 083e d3f5 0fbf 9ad9 213f
00000340: c4ba ea40 6b93 11c1 0b3b 3bbf 863e 8140
00000350: 3390 debf 652a 77bf b019 adbf 43f0 92bf
00000360: 5da0 693f 3a9f 8f3f 0d07 a2c0 1d67 0e41
00000370: c054 60c0 02a9 38c0 5ef8 05c0 2e93 9dbe
00000380: 7dd4 3240 10b6 37c0 1db3 923c 301f 193f
00000390: 0fd8 a43f abe1 96bf 23bb 47bf 538e a6bf
000003a0: e380 c43e 501d 2ebf 2931 0dbf 9169 cebd
000003b0: ea36 5bbf 74ae b5bf 2179 783f d3ad 6740
000003c0: 3527 df3f 6e6e 17c0 1b3e fabf b082 8c3e
000003d0: 0dcd 363f 03b0 133f de0d d8be 95d9 37bf
000003e0: 9c00 1ebd 6e87 733f 1493 99bf cdb3 5040
000003f0: 1255 b2bf c4b6 8f3e c027 6ac0 83f1 8140

Ge_Gemmcst1 f4 [16]
0.0 0.0 0.0 0.0 0.0 0.0 0.0 0.0
0.0 0.0 0.0 0.0 0.0 0.0 0.0 0.0
00000000: 0000 0000 0000 0000 0000 0000 0000 0000
00000010: 0000 0000 0000 0000 0000 0000 0000 0000
00000020: 0000 0000 0000 0000 0000 0000 0000 0000
00000030: 0000 0000 0000 0000 0000 0000 0000 0000

Ge_Gemmcst2 f4 [40, 16]
17.170164 3.4556556 11.89235 5.778864 10.739926 8.0192 3.489151 5.100081
2.3413188 12.093085 6.392018 13.362826 6.8242254 4.367845 6.1507626 5.2656517
16.441256 3.476263 4.5297284 4.9581804 3.296008 7.4475393 1.854958 4.4249573
1.4926031 7.087588 3.0580492 6.7603545 4.645692 5.6253786 4.0022464 6.702548
18.361952 4.5042853 7.3553867 6.900003 12.431546 10.739355 2.0762475 5.5358987
3.2953596 9.091275 2.8868697 11.860444 10.5821705 5.5880775 5.242529 12.119962
8.899566 2.5594225 5.244812 3.3411016 4.5312867 4.4759507 1.4652938 2.2303336
1.1537368 3.6992314 2.0472836 8.677912 1.8504089 1.7080436 4.4841886 3.485038
7.263517 1.9696754 6.3928647 3.3728344 8.423799 5.387271 1.4897505 3.6344495
1.6246158 6.2698965 2.574046 6.4695125 1.9173607 2.987806 4.925873 3.249759
13.149694 6.111901 7.442058 5.36939 13.642353 6.4108644 2.5097902 4.343535
1.0938646 9.124663 6.634101 25.412973 3.2239287 4.5591316 4.7730665 12.22013
6.151687 3.8610246 3.340209 4.3970904 5.82202 4.3033843 1.6231563 3.7249436
1.8104035 4.2555146 1.9185367 8.164471 3.5869627 4.426645 4.2752995 3.8219357
4.313418 2.6314151 1.7161762 1.6335839 3.582138 2.5931861 1.4813346 2.2111576
0.9867087 2.4367166 2.2106023 4.5540075 2.4567626 1.8439018 2.4103682 2.535779
6.4952197 4.454911 3.2673223 2.9565673 3.4671185 3.4287846 1.7078205 2.6595786
2.373937 4.135917 1.6944988 7.6151285 1.8618168 1.9426184 2.4617057 4.096458
14.056141 5.6466455 8.248497 10.52655 5.0938287 5.578029 3.0312703 6.0696435
4.2269 7.5421925 5.106253 23.757858 3.5022604 12.580171 5.853558 5.3353224
4.2152505 1.799448 2.1853764 2.4805732 8.989996 3.392692 1.3329418 1.7766072
0.7099767 2.8420935 1.5054588 6.158943 2.4951854 0.8949731 3.789622 1.5665867
9.970951 4.5524964 4.671986 3.956726 1.9463676 1.8902043 1.4390419 2.5972254
1.400659 2.7931488 1.6794616 6.3953123 2.6593404 2.51288 2.9760447 3.9613404
2.8989248 1.3729812 1.8233701 2.0067644 4.567911 1.7387532 0.95371705 1.4031984
1.298654 3.2506778 0.81371325 5.471786 1.5324908 0.92111564 1.3967342 2.4440818
6.8253784 5.0938206 2.5229151 5.903801 3.8070002 2.019214 2.2320611 1.961487
2.2768216 4.8909516 3.526673 8.557852 3.0875359 2.1489525 3.2482255 3.128133
4.6768847 1.6535587 2.1914382 2.695863 1.9922662 1.2261803 1.2151829 1.792759
1.1015447 2.2830667 1.7769525 2.3621433 1.414539 1.1252431 1.1622962 3.9726639
4.1689095 2.3307009 3.0112069 2.8086832 2.45483 1.7471925 1.3361733 2.0571713
1.388427 2.5849762 1.2260437 4.1280437 1.399493 0.98520046 2.560532 2.4536688
00000000: 7f5c 8941 7629 5d40 1147 3e41 74ec b840
00000010: bdd6 2b41 a54e 0041 404e 5f40 dd33 a340
00000020: 2bd8 1540 477d 4141 698b cc40 23ce 5541
00000030: 0e60 da40 63c5 8b40 0cd3 c440 3880 a840
00000040: b187 8341 187b 5e40 89f3 9040 6aa9 9e40
00000050: ccf1 5240 3e52 ee40 446f ed3f 4099 8d40
00000060: 9e0d bf3f 85cd e240 14b7 4340 d354 d840
00000070: 82a9 9440 1a03 b440 6712 8040 467b d640
00000080: 47e5 9241 1b23 9040 545f eb40 d3cc dc40
00000090: 9de7 4641 66d4 2b41 3de1 0440 1526 b140
000000a0: 2ce7 5240 dd75 1141 79c2 3840 61c4 3d41
000000b0: 9250 2941 88d1 b240 ccc2 a740 5deb 4141
000000c0: 9f64 0e41 94cd 2340 80d5 a740 9cd4 5540
000000d0: 4d00 9140 fd3a 8f40 bf8e bb3f c9bd 0e40
000000e0: a6ad 933f 35c0 6c40 b206 0340 bad8 0a41
000000f0: 33da ec3f 2ca1 da3f 797e 8f40 dd0a 5f40
00000100: bb6e e840 531e fc3f 5992 cc40 85dc 5740
00000110: e1c7 0641 8664 ac40 25b0 be3f d29a 6840
00000120: 69f3 cf3f fea2 c840 2bbd 2440 3f06 cf40
00000130: 136c f53f 3738 3f40 c0a0 9d40 0dfc 4f40
00000140: 2665 5241 b194 c340 5725 ee40 0bd2 ab40
00000150: 1447 5a41 cd25 cd40 67a0 2040 3dfe 8a40
00000160: c103 8c3f 9ffe 1141 8e4a d440 c54d cb41
00000170: d954 4e40 68e4 9140 f6bc 9840 a785 4341
00000180: 9fda c440 071b 7740 fcc5 5540 f7b4 8c40
00000190: fd4d ba40 53b5 8940 96c3 cf3f 7a65 6e40
000001a0: 4dbb e73f 2d2d 8840 9c92 f53f aca1 0241
000001b0: cc90 6540 13a7 8d40 41cf 8840 989a 7440
000001c0: 8507 8a40 1b69 2840 a9ab db3f 4719 d13f
000001d0: c041 6540 c3f6 2540 5f9c bd3f 9b83 0d40
000001e0: f198 7c3f 2af3 1b40 827a 0d40 6eba 9140
000001f0: 993b 1d40 f904 ec3f 7943 1a40 344a 2240
00000200: d7d8 cf40 a28e 8e40 cf1b 5140 6638 3d40
00000210: 45e5 5d40 3571 5b40 dd99 da3f 8936 2a40
00000220: 95ee 1740 6f59 8440 56e5 d83f 22af f340
00000230: 0350 ee3f b8a7 f83f 968c 1d40 2f16 8340
00000240: f4e5 6041 52b1 b440 d8f9 0341 c06c 2841
00000250: a500 a340 377f b240 5500 4240 853a c240
00000260: c442 8740 a459 f140 6d66 a340 1810 be41
00000270: 0925 6040 6148 4941 5950 bb40 f6ba aa40
00000280: 55e3 8640 5054 e63f 35dd 0b40 b6c1 1e40
00000290: 06d7 0f41 de21 5940 d69d aa3f dd67 e33f
000002a0: 08c1 353f dce4 3540 e0b2 c03f 1016 c540
000002b0: 1eb1 1f40 f51c 653f 2b89 7240 ea85 c83f
000002c0: 0489 1f41 0dae 9140 e980 9540 003b 7d40
000002d0: 9322 f93f 37f2 f13f 8632 b83f f138 2640
000002e0: cb48 b33f f3c2 3240 99f8 d63f 66a6 cc40
000002f0: a232 2a40 07d3 2040 8477 3e40 9a86 7d40
00000300: fc87 3940 d9bd af3f 3164 e93f d46e 0040
00000310: 542c 9240 778f de3f cd26 743f 019c b33f
00000320: 4b3a a63f 1b0b 5040 834f 503f df18 af40
00000330: a928 c43f 3cce 6b3f 30c8 b23f d66b 1c40
00000340: 8069 da40 9400 a340 7177 2140 f0eb bc40
00000350: e4a5 7340 cd3a 0140 17da 0e40 0212 fb3f
00000360: 72b7 1140 ad82 9c40 03b5 6140 f6ec 0841
00000370: 309a 4540 7088 0940 ede2 4f40 5533 4840
00000380: 0aa9 9540 d0a7 d33f 8640 0c40 0589 2c40
00000390: 9402 ff3f 7af3 9c3f 1d8b 9b3f 2079 e53f
000003a0: 6bff 8c3f c41d 1240 2e73 e33f 5b2d 1740
000003b0: 9d0f b53f f707 903f 1fc6 943f 2040 7e40
000003c0: b567 8540 342a 1540 9db7 4040 77c1 3340
000003d0: ef1b 1d40 01a4 df3f ba07 ab3f b2a8 0340
000003e0: fab7 b13f 4070 2540 00ef 9c3f ef18 8440
000003f0: 9622 b33f 1936 7c3f c2df 2340 e908 1d40

Ad_Addcst2 f4 [16]
59.960266 44.889866 53.74392 47.973278 59.292587 50.775047 33.45583 44.119347
33.674248 54.978733 45.343952 60.744553 45.757393 44.286743 49.522194 53.93916
00000000: 50d7 6f42 398f 3342 c6f9 5642 a3e4 3f42
00000010: 9c2b 6d42 a619 4b42 c5d2 0542 367a 3042
00000020: 6eb2 0642 39ea 5b42 3560 3542 6cfa 7242
00000030: 9207 3742 a025 3142 ba16 4642 b3c1 5742

Ad_Addcst3 f4 [16]
-1.7153077 -3.3913043 -3.2730641 -2.320584 -3.3200371 -2.5989535 -3.2655842 -2.7992117
-3.035456 -2.495079 -3.33931 -2.6461794 -3.1999145 -3.7794895 -2.4127657 -2.981986
00000000: 348f dbbf 210b 59c0 e279 51c0 7384 14c0
00000010: 7d7b 54c0 4155 26c0 55ff 50c0 4926 33c0
00000020: e944 42c0 60af 1fc0 41b7 55c0 015b 29c0
00000030: 66cb 4cc0 28e3 71c0 c16a 1ac0 dcd8 3ec0
